…
isplayName":"ELISA DE FILOMENO","userId":"14189740222877271672"}},"outputId":"e3eb2248-57c0-40de-a159-4a8e2211795f"},"execution_count":null,"outputs":[{"output_type":"stream","name":"stdout","text":["Model: \"model\"\n","_________________________________________________________________\n"," Layer (type)                Output Shape              Param #   \n","=================================================================\n"," input_1 (InputLayer)        [(None, 180, 180, 3)]     0         \n","                                                                 \n"," rescaling (Rescaling)       (None, 180, 180, 3)       0         \n","                                                                 \n"," conv2d (Conv2D)             (None, 178, 178, 32)      896       \n","                                                                 \n"," max_pooling2d (MaxPooling2D  (None, 89, 89, 32)       0         \n"," )                                                               \n","                                                                 \n"," conv2d_1 (Conv2D)           (None, 87, 87, 64)        18496     \n","                                                                 \n"," max_pooling2d_1 (MaxPooling  (None, 43, 43, 64)       0         \n"," 2D)                                                             \n","                                                                 \n"," conv2d_2 (Conv2D)           (None, 41, 41, 128)       73856     \n","                                                                 \n"," conv2d_3 (Conv2D)           (None, 39, 39, 128)       147584    \n","                                                                 \n"," max_pooling2d_2 (MaxPooling  (None, 19, 19, 128)      0         \n"," 2D)                                                             \n","                                                                 \n"," conv2d_4 (Conv2D)           (None, 17, 17, 64)        73792     \n","                                                                 \n"," max_pooling2d_3 (MaxPooling  (None, 8, 8, 64)         0         \n"," 2D)                                                             \n","                                                                 \n"," conv2d_5 (Conv2D)           (None, 6, 6, 32)          18464     \n","                                                                 \n"," max_pooling2d_4 (MaxPooling  (None, 3, 3, 32)         0         \n"," 2D)                                                             \n","                                                                 \n"," flatten (Flatten)           (None, 288)               0         \n","                                                                 \n"," dropout (Dropout)           (None, 288)               0         \n","                                                                 \n"," dense (Dense)               (None, 18)                5202      \n","                                                                 \n","=================================================================\n","Total params: 338,290\n","Trainable params: 338,290\n","Non-trainable params: 0\n","_________________________________________________________________\n","Model: \"model\"\n","_________________________________________________________________\n"," Layer (type)                Output Shape              Param #   \n","=================================================================\n"," input_1 (InputLayer)        [(None, 180, 180, 3)]     0         \n","                                                                 \n"," rescaling (Rescaling)       (None, 180, 180, 3)       0         \n","                                                                 \n"," conv2d (Conv2D)             (None, 178, 178, 32)      896       \n","                                                                 \n"," max_pooling2d (MaxPooling2D  (None, 89, 89, 32)       0         \n"," )                                                               \n","                                                                 \n"," conv2d_1 (Conv2D)           (None, 87, 87, 64)        18496     \n","                                                                 \n"," max_pooling2d_1 (MaxPooling  (None, 43, 43, 64)       0         \n"," 2D)                                                             \n","                                                                 \n"," conv2d_2 (Conv2D)           (None, 41, 41, 128)       73856     \n","                                                                 \n"," conv2d_3 (Conv2D)           (None, 39, 39, 128)       147584    \n","                                                                 \n"," max_pooling2d_2 (MaxPooling  (None, 19, 19, 128)      0         \n"," 2D)                                                             \n","                                                                 \n"," conv2d_4 (Conv2D)           (None, 17, 17, 64)        73792     \n","                                                                 \n"," max_pooling2d_3 (MaxPooling  (None, 8, 8, 64)         0         \n"," 2D)                                                             \n","                                                                 \n"," conv2d_5 (Conv2D)           (None, 6, 6, 32)          18464     \n","                                                                 \n"," max_pooling2d_4 (MaxPooling  (None, 3, 3, 32)         0         \n"," 2D)                                                             \n","                                                                 \n"," flatten (Flatten)           (None, 288)               0         \n","                                                                 \n"," dropout (Dropout)           (None, 288)               0         \n","                                                                 \n"," dense (Dense)               (None, 18)                5202      \n","                                                                 \n","=================================================================\n","Total params: 338,290\n","Trainable params: 338,290\n","Non-trainable params: 0\n","_________________________________________________________________\n"]}]},{"cell_type":"code","source":["optimizer = keras.optimizers.Adam(learning_rate=1e-3)\n","\n"
…
