…
:{"displayName":"FABIANO PILIA","userId":"16552442109143948924"}},"outputId":"5e5583fb-8b4e-46ef-a030-3de392bb29f7"},"execution_count":null,"outputs":[{"output_type":"stream","name":"stdout","text":["Model: \"vgg16\"\n","_________________________________________________________________\n"," Layer (type)                Output Shape              Param #   \n","=================================================================\n"," input_1 (InputLayer)        [(None, 180, 180, 3)]     0         \n","                                                                 \n"," block1_conv1 (Conv2D)       (None, 180, 180, 64)      1792      \n","                                                                 \n"," block1_conv2 (Conv2D)       (None, 180, 180, 64)      36928     \n","                                                                 \n"," block1_pool (MaxPooling2D)  (None, 90, 90, 64)        0         \n","                                                                 \n"," block2_conv1 (Conv2D)       (None, 90, 90, 128)       73856     \n","                                                                 \n"," block2_conv2 (Conv2D)       (None, 90, 90, 128)       147584    \n","                                                                 \n"," block2_pool (MaxPooling2D)  (None, 45, 45, 128)       0         \n","                                                                 \n"," block3_conv1 (Conv2D)       (None, 45, 45, 256)       295168    \n","                                                                 \n"," block3_conv2 (Conv2D)       (None, 45, 45, 256)       590080    \n","                                                                 \n"," block3_conv3 (Conv2D)       (None, 45, 45, 256)       590080    \n","                                                                 \n"," block3_pool (MaxPooling2D)  (None, 22, 22, 256)       0         \n","                                                                 \n"," block4_conv1 (Conv2D)       (None, 22, 22, 512)       1180160   \n","                                                                 \n"," block4_conv2 (Conv2D)       (None, 22, 22, 512)       2359808   \n","                                                                 \n"," block4_conv3 (Conv2D)       (None, 22, 22, 512)       2359808   \n","                                                                 \n"," block4_pool (MaxPooling2D)  (None, 11, 11, 512)       0         \n","                                                                 \n"," block5_conv1 (Conv2D)       (None, 11, 11, 512)       2359808   \n","                                                                 \n"," block5_conv2 (Conv2D)       (None, 11, 11, 512)       2359808   \n","                                                                 \n"," block5_conv3 (Conv2D)       (None, 11, 11, 512)       2359808   \n","                                                                 \n"," block5_pool (MaxPooling2D)  (None, 5, 5, 512)         0         \n","                                                                 \n","=================================================================\n","Total params: 14,714,688\n","Trainable params: 14,714,688\n","Non-trainable params: 0\n","_________________________________________________________________\n"]}]},{"cell_type":"code","source":["import numpy as np\n","\n","print('This is the numbe
…
:{"displayName":"FABIANO PILIA","userId":"16552442109143948924"}},"outputId":"ef6ced71-1cca-48e0-a141-61e6ffb9d832"},"execution_count":null,"outputs":[{"output_type":"stream","name":"stdout","text":["Model: \"model\"\n","_________________________________________________________________\n"," Layer (type)                Output Shape              Param #   \n","=================================================================\n"," input_2 (InputLayer)        [(None, 180, 180, 3)]     0         \n","                                                                 \n"," rescaling (Rescaling)       (None, 180, 180, 3)       0         \n","                                                                 \n"," tf.__operators__.getitem (S  (None, 180, 180, 3)      0         \n"," licingOpLambda)                                                 \n","                                                                 \n"," tf.nn.bias_add (TFOpLambda)  (None, 180, 180, 3)      0         \n","                                                                 \n"," vgg16 (Functional)          (None, 5, 5, 512)         14714688  \n","                                                                 \n"," flatten (Flatten)           (None, 12800)             0         \n","                                                                 \n"," dense (Dense)               (None, 256)               3277056   \n","                                                                 \n"," dropout (Dropout)           (None, 256)               0         \n","                                                                 \n"," dense_1 (Dense)             (None, 18)                4626      \n","                                                                 \n","=================================================================\n","Total params: 17,996,370\n","Trainable params: 3,281,682\n","Non-trainable params: 14,714,688\n","_________________________________________________________________\n"]}]},{"cell_type":"markdown","source":["**Let's add Keras callbacks:**\n","\n","*  
…
